…
      "Downloading https://github.com/ultralytics/assets/releases/download/v0.0.0/Arial.ttf to /root/.config/Ultralytics/Arial.ttf...\r\n",
      "100%|████████████████████████████████████████| 755k/755k [00:00<00:00, 22.6MB/s]\r\n",
      "Downloading https://github.com/ultralytics/yolov5/releases/download/v7.0/yolov5s.pt to yolov5s.pt...\r\n",
      "100%|███████████████████████████████████████| 14.1M/14.1M [00:00<00:00, 207MB/s]\r\n",
      "\r\n",
      "Overriding model.yaml nc=80 with nc=10\r\n",
      "\r\n",
      "                 from  n    params  module                                  arguments                     \r\n",
      "  0                -1  1      3520  models.common.Conv                      [3, 32, 6, 2, 2]              \r\n",
      "  1                -1  1     18560  models.common.Conv                      [32, 64, 3, 2]                \r\n",
      "  2                -1  1     18816  models.common.C3                        [64, 64, 1]                   \r\n",
      "  3                -1  1     73984  models.common.Conv                      [64, 128, 3, 2]               \r\n",
      "  4                -1  2    115712  models.common.C3                        [128, 128, 2]                 \r\n",
      "  5                -1  1    295424  models.common.Conv                      [128, 256, 3, 2]              \r\n",
      "  6                -1  3    625152  models.common.C3                        [256, 256, 3]                 \r\n",
      "  7                -1  1   1180672  models.common.Conv                      [256, 512, 3, 2]              \r\n",
      "  8                -1  1   1182720  models.common.C3                        [512, 512, 1]                 \r\n",
      "  9                -1  1    656896  models.common.SPPF                      [512, 512, 5]                 \r\n",
      " 10                -1  1    131584  models.common.Conv                      [512, 256, 1, 1]              \r\n",
      " 11                -1  1         0  torch.nn.modules.upsampling.Upsample    [None, 2, 'nearest']          \r\n",
      " 12           [-1, 6]  1         0  models.common.Concat                    [1]                           \r\n",
      " 13                -1  1    361984  models.common.C3                        [512, 256, 1, False]          \r\n",
      " 14                -1  1     33024  models.common.Conv                      [256, 128, 1, 1]              \r\n",
      " 15                -1  1         0  torch.nn.modules.upsampling.Upsample    [None, 2, 'nearest']          \r\n",
      " 16           [-1, 4]  1         0  models.common.Concat                    [1]                           \r\n",
      " 17                -1  1     90880  models.common.C3                        [256, 128, 1, False]          \r\n",
      " 18                -1  1    147712  models.common.Conv                      [128, 128, 3, 2]              \r\n",
      " 19          [-1, 14]  1         0  models.common.Concat                    [1]                           \r\n",
      " 20                -1  1    296448  models.common.C3                        [256, 256, 1, False]          \r\n",
      " 21                -1  1    590336  models.common.Conv                      [256, 256, 3, 2]              \r\n",
      " 22          [-1, 10]  1         0  models.common.Concat                    [1]                           \r\n",
      " 23                -1  1   1182720  models.common.C3                        [512, 512, 1, False]          \r\n",
      " 24      [17, 20, 23]  1     40455  models.yolo.Detect                      [10, [[10, 13, 16, 30, 33, 23], [30, 61, 62, 45, 59, 119], [116, 90, 156, 198, 373, 326]], [128, 256, 512]]\r\n",
      "YOLOv5s summary: 214 layers, 7046599 parameters, 7046599 gradients, 16.0 GFLOPs\r\n",
      "\r\n",
      "Transferred 342/349 items from yolov5s.pt\r\n",
      "\u001b[34m\u001b[1mAMP: \u001b[0mchecks passed ✅\r\n",
…
